…
009912115"}},"colab":{"base_uri":"https://localhost:8080/","height":510}},"source":["model.summary()  # batch height width channels"],"execution_count":0,"outputs":[{"output_type":"stream","text":["Model: \"model_2\"\n","_________________________________________________________________\n","Layer (type)                 Output Shape              Param #   \n","=================================================================\n","input_3 (InputLayer)         [(None, 150, 150, 3)]     0         \n","_________________________________________________________________\n","conv2d_6 (Conv2D)            (None, 148, 148, 16)      448       \n","_________________________________________________________________\n","max_pooling2d_6 (MaxPooling2 (None, 74, 74, 16)        0         \n","_________________________________________________________________\n","conv2d_7 (Conv2D)            (None, 72, 72, 32)        4640      \n","_________________________________________________________________\n","max_pooling2d_7 (MaxPooling2 (None, 36, 36, 32)        0         \n","_________________________________________________________________\n","conv2d_8 (Conv2D)            (None, 34, 34, 64)        18496     \n","_________________________________________________________________\n","max_pooling2d_8 (MaxPooling2 (None, 17, 17, 64)        0         \n","_________________________________________________________________\n","flatten_2 (Flatten)          (None, 18496)             0         \n","_________________________________________________________________\n","dense_4 (Dense)              (None, 512)               9470464   \n","_________________________________________________________________\n","dense_5 (Dense)              (None, 1)                 513       \n","=================================================================\n","Total params: 9,494,561\n","Trainable params: 9,494,561\n","Non-trainable params: 0\n","_________________________________________________________________\n"],"name":"stdout"}]},{"cell_type":"markdown","metadata":{"colab_type":"text","id":"DmtkTn06pKxF"},"source":["\"출력 모양\" 열은 각 연속 레이어에서 형상 맵의 크기가 어떻게 진화하는지 보여준다. 콘볼루
…
